snapshots/deepQA_LIVE_seed12_0.9708_0.9665_epoch2430.pth (torch_old, 525009 bytes, 18 tensors)

conv1_1.weight f4 [32, 1, 3, 3]
0	0x3a835877	0.0010020871
1	0xbe4866ad	-0.19570418
2	0xbc9d562f	-0.019206135
3	0x3e47ccc7	0.1951171
4	0x3dcd1061	0.1001289
5	0xbef7dbd6	-0.4840991
6	0x3e8d4e9a	0.2759903
7	0xbe43fd44	-0.19139582
8	0x3eede0dd	0.4646062
9	0x3ea8c6f4	0.3296429
10	0xbecb1c8a	-0.3967021
11	0x3d945f84	0.07244781
12	0x3d7082d8	0.058718532
13	0xbd3f2962	-0.046670325
14	0xbb7cee7b	-0.0038594294
15	0xbeef0fed	-0.46691838
16	0x3e76b802	0.24093631
17	0x3e70c9e7	0.2351452
18	0xbe1171b3	-0.14203529
19	0x3d8e84d7	0.06958931
20	0x3e431735	0.19051822
21	0xbe8926a1	-0.26787284
22	0xbe2f063c	-0.17092222
23	0x3e6cc763	0.23122935
24	0x3e64ca51	0.22342803
25	0xbd7d826e	-0.061891966
26	0xbe11f0a8	-0.1425196
27	0x3e4cc285	0.19996078
28	0x3e2efb00	0.17087936
29	0x3e3ef6be	0.18648812
30	0xbc1ca442	-0.0095606465
31	0x3e8e1e6e	0.2775759
32	0xbd9e2aba	-0.07722993
33	0xbe74e47a	-0.23915282
34	0xbe8ef7a2	-0.27923304
35	0xbe9c1055	-0.3048121
36	0x3e0222bd	0.12708564
37	0xbe342341	-0.17591573
38	0xbe238921	-0.1597028
39	0x3e25e104	0.16199118
40	0x3e680746	0.22659025
41	0xbe149a0d	-0.1451189
42	0xbe1bd0ce	-0.15216371
43	0xbe6a5c36	-0.22886738
44	0x3df1372b	0.117781006
45	0xbe2f874b	-0.17141454
46	0x3d21e5c0	0.039525747
47	0xbeaa72ce	-0.33290714
48	0xbe9a0082	-0.30078512
49	0x3e2ddff8	0.16979969
50	0x3e28040b	0.16407792
51	0x3e7e2953	0.24820451
52	0x39cc23a0	0.00038936455
53	0x3e671406	0.22566232
54	0x3ea69405	0.32534805
55	0xbeff90e3	-0.49915227
56	0xbefeec57	-0.49789688
57	0x3ef8b3bb	0.48574623
58	0x3de16010	0.110046506
59	0xb90f4e59	-0.0001366673
60	0x3e64b4e2	0.22334626
61	0xbed60547	-0.418009
62	0x3e86b98b	0.26313433
63	0x3dfcea52	0.123493806
64	0x3ded7e09	0.11596305
65	0x3d4d6b5b	0.05015121
66	0xbdb81a94	-0.089894444
67	0x3e18bf50	0.1491673
68	0x3e7fd1b1	0.24982335
69	0xbd6566c3	-0.056006204
70	0xbe8dc916	-0.2769248
71	0xbe951f67	-0.2912552
72	0xbd440737	-0.047858443
73	0xbeac8c23	-0.33700666
74	0xbe70c514	-0.2351268
75	0x3db24f2c	0.08706507
76	0xbe7f6e15	-0.24944337
77	0x3eb91701	0.36150363
78	0x3d088bc2	0.03333641
79	0x3e439226	0.1909872
80	0x3d9cb044	0.076508075
81	0xbef7f8d9	-0.48432043
82	0x3d8f5c28	0.06999999
83	0xbe977c2d	-0.29586926
84	0xbd586be7	-0.05283728
85	0x3e49e755	0.19717152
86	0xbd29fddf	-0.041501876
87	0x3ec2a420	0.38015842
88	0xbdf000d6	-0.117189094
89	0x3eab4e43	0.33458146
90	0x3e9fea4c	0.31233442
91	0x3ef155a6	0.47135657
92	0x3ea791b5	0.32728353
93	0xbe007b55	-0.12547047
94	0x3e3711f5	0.17877944
95	0x3e430a2c	0.19046849
96	0xbf04c2b9	-0.51859623
97	0xbf136369	-0.5757356
98	0xbf215056	-0.6301321
99	0x3ed79dbe	0.42112535
100	0xbb8351c5	-0.0040075504
101	0xbc40ee4e	-0.011775566
102	0x3b344ba2	0.00275109
103	0xbe9176c0	-0.28410912
104	0x3e783b5b	0.24241392
105	0x3dfa9f45	0.122374095
106	0xbf010a97	-0.50406784
107	0xbc71496b	-0.014726977
108	0x3ea723d4	0.32644522
109	0x3c4196de	0.011815755
110	0x3df38453	0.11890473
111	0x3d5b7c4f	0.053585347
112	0xbec34847	-0.3814108
113	0xbe7a65e9	-0.24452938
114	0x3ece84aa	0.4033559
115	0xbea8dc9f	-0.3298082
116	0x3d75724e	0.059923463
117	0xbeb38e95	-0.3506972
118	0xbd2bcdde	-0.041944377
119	0x3cf6e93a	0.030140508
120	0x3cef3d7a	0.029204119
121	0xbdeed2b7	-0.116612844
122	0x3e3b83dd	0.1831202
123	0x3df8ae96	0.121426746
124	0xbe8c5b37	-0.2741334
125	0x3d370c9a	0.044689752
126	0x3e90487f	0.2818031
127	0x3e79f88c	0.2441122
128	0xbe5f54cd	-0.21809693
129	0x3e12ce7c	0.1433658
130	0xbe9eb011	-0.30993703
131	0x3e3e7a7f	0.18601416
132	0x3dbea184	0.093081504
133	0x3d4724ac	0.048618957
134	0xbeb595c5	-0.35465828
135	0xbe0a4be0	-0.13505507
136	0xbeb804fa	-0.35941297
137	0x3e800799	0.25005797
138	0xbec7ba20	-0.3900919
139	0xbe7f4139	-0.24927224
140	0x3a2a2180	0.0006489977
141	0x3e9ca596	0.30595082
142	0x3e70a654	0.23500949
143	0x3e855492	0.26041085
144	0x3e8157c0	0.2526226
145	0xbc4a5c57	-0.012351117
146	0xbd8ad109	-0.067781515
147	0xbe30fd6d	-0.17284174
148	0xbe081d67	-0.13292466
149	0xbea6f9b4	-0.32612383
150	0x3e867c73	0.26266822
151	0x3eb5b8af	0.35492465
152	0x3e773528	0.24141371
153	0x3ea84f60	0.32873058
154	0x3dca30d5	0.09872595
155	0xbea7f0e7	-0.3280098
156	0x3f0a402e	0.5400418
157	0xbd92eadf	-0.07173704
158	0xbe5dfaf8	-0.21677768
159	0xbef04d3e	-0.4693393
160	0xbe81ba0e	-0.2533726
161	0x3ecd61c6	0.40113658
162	0x3ea1dd0b	0.31613955
163	0xbebbac0e	-0.36654705
164	0xbf0f5f69	-0.5600496
165	0x3c05a529	0.008157053
166	0xbe9ff221	-0.31239417
167	0x3eeeb25b	0.4662045
168	0x3e53adad	0.20671721
169	0xbe5fc8c2	-0.21853927
170	0x3e77c703	0.2419701
171	0x3ec60ed8	0.386832
172	0x3d450945	0.048104543
173	0xbed3427f	-0.4126167
174	0x3cf3616d	0.029709542
175	0xbeb8f62c	-0.36125314
176	0x3e9cccc6	0.3062498
177	0xbe312790	-0.17300248
178	0x3db06cdc	0.08614513
179	0x3db56904	0.08857921
180	0xbebd0886	-0.36920565
181	0xbca5577b	-0.020183316
182	0x3e8ab65d	0.27092257
183	0xbe119e14	-0.14220458
184	0xbe9afdb4	-0.30271685
185	0xbef7e3da	-0.48416024
186	0x3e2e19e0	0.17002058
187	0x3f16d40d	0.58917314
188	0x3da8622f	0.08221852
189	0xbe455b82	-0.19273189
190	0x3f247b0c	0.64250255
191	0xbf14d97e	-0.58144367
192	0x3e8f9d53	0.28049716
193	0xbeb0f263	-0.34559926
194	0x3de4775f	0.11155581
195	0xbe344a19	-0.17606391
196	0x3e06ab61	0.13151313
197	0x3e8026d1	0.25029615
198	0x3d518790	0.051154673
199	0xbe7318a7	-0.23739873
200	0x3e2968e2	0.16543916
201	0xbeb273c3	-0.34853944
202	0x3cd0ea05	0.025502214
203	0x3e313e8d	0.17309017
204	0xbdfdcba8	-0.1239236
205	0xbc5775e1	-0.013150663
206	0x3db9d5ae	0.09073959
207	0x3e6e2e08	0.23259747
208	0x3ea68b54	0.32528174
209	0xbeb7993b	-0.35859093
210	0x3e793989	0.24338354
211	0x3d94209f	0.072327845
212	0x3e8b76e0	0.27239132
213	0x3d731ba3	0.05935253
214	0xbecc4dad	-0.39903012
215	0xbed4bd6e	-0.41550773
216	0x3e8a15a0	0.26969624
217	0x3e853b70	0.2602191
218	0x3ea6dc1b	0.32589802
219	0xbe3926fe	-0.1808128
220	0x3da0fc63	0.07860639
221	0xbe2551a7	-0.16144429
222	0xbe9f2496	-0.310826
223	0x3e6a2630	0.2286613
224	0x3ce95165	0.028481195
225	0x3e9c7ca4	0.30563843
226	0x3dd220fe	0.10260199
227	0xbecf2827	-0.4046032
228	0xbe92c4ec	-0.28665864
229	0x3d0b8b3c	0.03406833
230	0x3e81c88f	0.25348327
231	0xbef1415b	-0.47120175
232	0x3e7f24d9	0.249164
233	0x3e613e7f	0.21996497
234	0xbbd3848d	-0.0064550103
235	0xbeadcb6c	-0.3394426
236	0xbe1860d5	-0.14880688
237	0x3e9346be	0.2876491
238	0x3e058924	0.13040596
239	0x3d92e6bd	0.07172916
240	0xbe99f11e	-0.3006677
241	0xbebf9aa1	-0.3742266
242	0xbeaea45e	-0.34109777
243	0x3d847ccc	0.064691156
244	0x3cae9617	0.021311803
245	0xbd76fa5a	-0.060297348
246	0x3edb8955	0.42878214
247	0xbe8b990f	-0.27265212
248	0xbe811ea7	-0.25218698
249	0xbe11b2ac	-0.14228314
250	0xbcba55ba	-0.022745956
251	0x3e4c32ac	0.19941205
252	0xbd99b712	-0.07505621
253	0xbeac2a43	-0.33625993
254	0x3eca95c9	0.39567402
255	0xbe77f656	-0.24215063

conv1_1.bias f4 [32]
0	0xbe2bb6f7	-0.16769014
1	0xb9fc67da	-0.0004814256
2	0xbc357675	-0.011075606
3	0x3c612d2d	0.013743681
4	0x3c0aa90b	0.008463155
5	0xbd18d2c4	-0.037310377
6	0xba12c443	-0.0005598703
7	0x3bdc39dd	0.006720765
8	0x3bf256da	0.0073956074
9	0xba8816bc	-0.0010382752
10	0xbdef4ed2	-0.11684956
11	0xba8fd001	-0.0010972024
12	0xb9ad007b	-0.0003299749
13	0xba360444	-0.00069433847
14	0xbce6e809	-0.028186815
15	0xbd1643bd	-0.036685694
16	0xbe688f39	-0.22710885
17	0xbe3194b9	-0.1734189
18	0xbe260670	-0.16213393
19	0xbbaf9421	-0.0053582345
20	0xbdf7bdc7	-0.12096744
21	0xbdda6be0	-0.10665107
22	0xbd95c48a	-0.073128775
23	0x39af1a20	0.00033398066
24	0xbe49118e	-0.19635603
25	0xbab6701e	-0.0013918912
26	0xbe4be0e4	-0.19910008
27	0x3aa704dc	0.0012742537
28	0xbdad0078	-0.08447355
29	0xba217653	-0.0006159294
30	0xbc352ac8	-0.011057563
31	0xbdf90170	-0.12158477

conv1_2.weight f4 [32, 1, 3, 3]
0	0xbe7105bd	-0.23537345
1	0x3ec03018	0.37536693
2	0x3cff5925	0.031170437
3	0xbd96d1b9	-0.0736422
4	0x3d99723e	0.07492493
5	0x3e9d1800	0.30682373
6	0xbec5c079	-0.38623407
7	0xbe0b7a39	-0.13620843
8	0xbe50bd65	-0.20384748
9	0x3d986cf3	0.074426554
10	0xbe8b04da	-0.2715214
11	0x3e6f0bf5	0.23344405
12	0x3ea831da	0.32850534
13	0xbea183d4	-0.3154589
14	0x3e0ecf10	0.13946176
15	0xbe9659a8	-0.29365277
16	0xbea4247d	-0.32059088
17	0xbd8bf90b	-0.068346106
18	0xbe8b2847	-0.27179167
19	0x3e1c21b5	0.15247233
20	0x3e52705f	0.20550679
21	0xbe0984dd	-0.1342959
22	0xbd0b8a63	-0.034067523
23	0x3e9a429f	0.30128953
24	0x3ea6303d	0.32458678
25	0xbe14d072	-0.1453264
26	0xbe10f68d	-0.14156552
27	0x3c84a34f	0.016191153
28	0x3e176f7f	0.14788626
29	0x3de6d780	0.11271572
30	0xbec1b302	-0.37831885
31	0xbe0642d5	-0.13111432
32	0xbe0b0a0f	-0.13578056
33	0xbe79054a	-0.24318424
34	0x3c265f15	0.010154505
35	0xbdc10b85	-0.09426025
36	0xbe947485	-0.28995147
37	0xbeb7d198	-0.35902095
38	0xbed08301	-0.40724948
39	0x3e7cca65	0.24686582
40	0x3ead2e06	0.33824176
41	0x3e0fab6b	0.14030235
42	0x3e9d9669	0.30778816
43	0x3e8d9af0	0.2765727
44	0xbe853a90	-0.26021242
45	0xbd7d7623	-0.061880242
46	0xbe233dc5	-0.15941532
47	0xbea5879c	-0.32330024
48	0xbeb15083	-0.34631738
49	0x3de9e076	0.11419766
50	0x3e0a689e	0.13516471
51	0x3e195e2d	0.14977331
52	0xbd710700	-0.058844566
53	0x3ddab5e2	0.10679223
54	0x3ea9426f	0.33058497
55	0xbd1feac5	-0.039042253
56	0x3de972fc	0.11398885
57	0xbe1880c8	-0.14892876
58	0xbeaf9c41	-0.342989
59	0x3e59adc0	0.21257687
60	0x3e2bc9e9	0.16776241
61	0xbe618d1f	-0.2202649
62	0xbc927046	-0.017875802
63	0xbed3398c	-0.41254842
64	0xbdd4481e	-0.10365318
65	0x3d54beb2	0.051939674
66	0xbb5f0669	-0.003403092
67	0xbea68945	-0.32526603
68	0xbdf6c882	-0.120499626
69	0x3d1ee086	0.03878834
70	0x3bea53d4	0.0071511064
71	0x3e520df6	0.20513138
72	0x3e69a443	0.22816567
73	0x3d35eabe	0.04441332
74	0xbec9b42f	-0.39395282
75	0x3e14e513	0.1454051
76	0x3e53a9b9	0.20670213
77	0xbe838334	-0.25686038
78	0x3e1dd0c6	0.15411672
79	0x3e05b962	0.13058999
80	0xbed5b2e6	-0.4173805
81	0xbda387f0	-0.079849124
82	0xbe1b9b15	-0.15195878
83	0x3d000edb	0.031264167
84	0xbe3a2b60	-0.18180609
85	0xbdd89e12	-0.105770245
86	0x3e191ec8	0.14953148
87	0x3e49af79	0.19695844
88	0xbe91b1a0	-0.2845583
89	0xbdd4a869	-0.10383684
90	0x3e3fb15d	0.18720002
91	0x3e542b29	0.2071959
92	0xbdbbe9d6	-0.0917546
93	0xbed42552	-0.41434723
94	0x3d0f866f	0.035040315
95	0x3e5871d9	0.2113718
96	0x3e8214fe	0.2540664
97	0xbea28725	-0.31743732
98	0xbeb1c629	-0.34721497
99	0xbe8e79d6	-0.27827328
100	0x3d2917c7	0.04128244
101	0xbede69ae	-0.43440002
102	0xbe2d3ffd	-0.16918941
103	0x3cf26009	0.029586809
104	0xbc2b5981	-0.010458351
105	0x3c52eb35	0.012873461
106	0x3caa0b91	0.020757468
107	0x3d6d9ec8	0.058012754
108	0xbec0d0c1	-0.37659267
109	0x3e4075e2	0.18794969
110	0x3e1fb7ea	0.15597501
111	0xbeb7233e	-0.35769075
112	0x3dbdfc9d	0.09276698
113	0xbceb0c48	-0.02869238
114	0x3e62bf36	0.22143254
115	0xbe120da3	-0.14263014
116	0x3cb4a2b5	0.022050241
117	0x3d0d11ae	0.03444069
118	0xbdb2293f	-0.08699273
119	0x3e9dca24	0.30818284
120	0xbec9b4d6	-0.3939578
121	0xbede6090	-0.43433046
122	0x3dd159ed	0.1022223
123	0xbaef4315	-0.0018254245
124	0x3d81985f	0.063278906
125	0x3e29b975	0.16574652
126	0x3df6ddfa	0.120540574
127	0x3e121451	0.14265563
128	0xbea3d39a	-0.31997377
129	0x3e163c2f	0.14671396
130	0x3e3ecb58	0.18632257
131	0xbe62d989	-0.22153296
132	0x3db222fd	0.0869808
133	0x3e56d46c	0.2097947
134	0x3db4dfd3	0.088317536
135	0x3d623f2e	0.055236034
136	0xbe22d08b	-0.15899865
137	0x3ea7ecc7	0.32797834
138	0x3e851d70	0.25999022
139	0x3e3594f3	0.17732601
140	0xbe638a5b	-0.22220747
141	0x3e456765	0.19277723
142	0x3e258b64	0.16166455
143	0xbe3c771f	-0.18404816
144	0xbe92828f	-0.28615233
145	0xbf026d63	-0.5094816
146	0x3e51b70a	0.2047998
147	0xbdb6d5a7	-0.0892747
148	0x3da28349	0.07935197
149	0xbd8b28e9	-0.06794912
150	0xbd9f7dd6	-0.07787673
151	0x3d8c1a49	0.06840951
152	0x3e1c566d	0.15267344
153	0x3cf3d8da	0.029766489
154	0xbebbf57c	-0.36710727
155	0xbe7980a2	-0.24365476
156	0x3e4818ad	0.19540663
157	0xbd3dd277	-0.046343293
158	0x3d654848	0.055977136
159	0x3ebb1d83	0.36545953
160	0xbe32e3ca	-0.17469707
161	0x3e88ec6f	0.26742885
162	0xbdb78fd1	-0.08962978
163	0xbba95f87	-0.0051688584
164	0xbe936b39	-0.28792742
165	0xbdc869e9	-0.09785826
166	0x3dd68304	0.10474208
167	0xbeb1a183	-0.34693536
168	0x3e7f785a	0.24948254
169	0x3cd7ae86	0.026328336
170	0x3de78e2f	0.11306416
171	0xbbddb957	-0.006766479
172	0x3eba81be	0.3642711
173	0x3e0bf688	0.13668263
174	0x3d2efb5a	0.042720176
175	0x3e63bcc6	0.2223998
176	0xbe8db697	-0.27678367
177	0xbe2215ff	-0.15828703
178	0xbe5a40f4	-0.2131384
179	0xbe275a97	-0.16343151
180	0xbe4bdefc	-0.1990928
181	0x3e668599	0.22511901
182	0xbe787808	-0.24264538
183	0xbc5444cc	-0.012955856
184	0xbeab6126	-0.33472556
185	0xbe231100	-0.15924454
186	0x3dee0275	0.116215624
187	0x3db59e72	0.08868112
188	0x3e94d664	0.29069817
189	0x3c980c5f	0.018560586
190	0xbe68701c	-0.22699016
191	0xbe05c2c6	-0.13062581
192	0x3ea7a917	0.32746193
193	0x3e8ad243	0.27113542
194	0x3e8f691f	0.2800989
195	0xbe9f2b82	-0.3108788
196	0xbea6c2b4	-0.32570422
197	0x3e1b1917	0.1514629
198	0x3d8f5f3b	0.07000586
199	0xbe7fd05e	-0.2498183
200	0x3e34f8ed	0.17673083
201	0xbd4a6350	-0.049411118
202	0x3bccd0a7	0.0062504592
203	0x3ca3061c	0.019900374
204	0x3e85ad91	0.26108983
205	0x3eb0db0c	0.3454212
206	0xbe3f4189	-0.18677343
207	0x3ea37a03	0.31929025
208	0x3e277248	0.16352189
209	0x3e0d1d64	0.13780743
210	0x3dcd3161	0.10019184
211	0xbe98ce75	-0.29845014
212	0x3de10c4d	0.10988674
213	0xbe069eed	-0.13146563
214	0xbe9609a8	-0.29304242
215	0x3e6874e9	0.22700848
216	0xbe76a1f8	-0.24085224
217	0xbe527a91	-0.20554568
218	0xbe0d66eb	-0.13808791
219	0x3de92e29	0.113857575
220	0x3e90de9b	0.28294834
221	0x3e48775e	0.19576785
222	0xbe2b5fa7	-0.16735707
223	0x3e3ef9ae	0.18649933
224	0x3d95f216	0.07321565
225	0x3e7116ca	0.2354385
226	0x3c9bcb17	0.01901774
227	0x3e07d556	0.13264975
228	0x3db253a0	0.087073565
229	0xbee13e24	-0.43992722
230	0xbea5d8a5	-0.3239185
231	0x3e1df6ea	0.15426221
232	0x3e64b1ea	0.22333494
233	0xbecd7228	-0.40126157
234	0x3e96e2f9	0.2947004
235	0x3d8cbe43	0.06872227
236	0xbe4dfedc	-0.20116752
237	0xbe6b5ffb	-0.22985832
238	0x3ea1acd0	0.31577158
239	0xbe95de77	-0.2927129
240	0x3e10d73d	0.14144607
241	0xbe967433	-0.29385528
242	0x3e7e7fef	0.2485349
243	0xbeb8f201	-0.36122134
244	0xbe99974d	-0.29998246
245	0x3e5ae024	0.21374565
246	0xbe5d6148	-0.21619141
247	0x3d27194b	0.040795606
248	0x3d85dc93	0.06536212
249	0x3da5cacb	0.0809532
250	0x3e06382a	0.13107362
251	0x3db3e4a4	0.08783844
252	0x3dbaae16	0.091152355
253	0xbea4022b	-0.32032904
254	0xbe81cb9e	-0.2535066
255	0xbd9ba64f	-0.0760008

conv1_2.bias f4 [32]
0	0x3ddaf1ab	0.10690626
1	0x3e3e6026	0.18591365
2	0xbe439595	-0.1910003
3	0x3e68b725	0.22726114
4	0x3d50829f	0.05090582
5	0x3e09b740	0.1344881
6	0xbcfa930f	-0.030587701
7	0x3e24725a	0.16059247
8	0x3de4ee21	0.11178232
9	0x3eb18d80	0.34678268
10	0x3dcfdebb	0.10149904
11	0x3e849ea1	0.25902274
12	0x3d7b5e95	0.061369497
13	0x3e0409d0	0.12894368
14	0xbea4c014	-0.32177794
15	0xbe93d93f	-0.28876683
16	0x3e265591	0.16243578
17	0xbe0f04d9	-0.13966693
18	0x3aca04fc	0.0015412862
19	0x3d13df10	0.0361014
20	0x3d868a4d	0.065693475
21	0xbc545a96	-0.0129610505
22	0xbea049af	-0.31306216
23	0xbe816546	-0.25272578
24	0xbd29465c	-0.041326866
25	0x3e0ff5d8	0.14058626
26	0xbdd3803e	-0.10327195
27	0x3d922cf2	0.07137479
28	0x3e0dde0e	0.13854238
29	0x3d6dc6f3	0.05805106
30	0x3d3edd5d	0.046597827
31	0xbebb8e69	-0.36632088

conv2_1.weight f4 [32, 32, 3, 3]
0	0xbd17640a	-0.03696064
1	0xbd36e7ed	-0.044654775
2	0xbd150a7a	-0.036386944
3	0x3c9020a2	0.017593686
4	0xbc83a975	-0.016072014
5	0xbd016fd4	-0.03160079
6	0xbd91fae2	-0.0712793
7	0xbdbe4386	-0.09290223
8	0xbda06099	-0.078309245
9	0xbe79f854	-0.24411136
10	0xbec593e8	-0.38589406
11	0xbe1c74df	-0.15278958
12	0xbd59d7e4	-0.053184405
13	0xbe7af8d2	-0.2450898
14	0xbe557325	-0.20844705
15	0x3e80b24a	0.25136024
16	0x3e94ffa0	0.29101276
17	0x3e68baca	0.22727504
18	0x3da6f958	0.08153027
19	0x3cd807dd	0.026370937
20	0x3c07923c	0.008274611
21	0xbdac18df	-0.08403181
22	0xbd3f2c1e	-0.046672933
23	0xbd81c400	-0.06336212
24	0x3d4950a2	0.049149163
25	0x3d53f4aa	0.051747
26	0xbc548f40	-0.012973607
27	0x3b48e19e	0.0030652056
28	0x3c3d4e54	0.011554319
29	0x3da14647	0.078747325
30	0xbdb17c1d	-0.08666251
31	0xbdec3a2f	-0.11534535
32	0xbdd1e673	-0.10249033
33	0xbe28270d	-0.16421147
34	0xbe6e4e98	-0.23272169
35	0xbe652e39	-0.22380914
36	0xbd7df18e	-0.061997943
37	0xbd4122b0	-0.04715222
38	0xbd9bc748	-0.07606369
39	0x3c003c5d	0.007826892
40	0x3cc2a3a4	0.02375967
41	0x3ce46632	0.027880762
42	0x3c180c45	0.009280269
43	0xbd089048	-0.033340722
44	0x3c844dad	0.01615032
45	0xbde665bf	-0.11249875
46	0xbb6336f3	-0.0034670203
47	0xbdd35edb	-0.103208266
48	0xbe61f0af	-0.2206447
49	0xbe50460d	-0.20339222
50	0xbe037aea	-0.12839857
51	0x3d676dfa	0.056501366
52	0x3dd2040d	0.10254679
53	0x3df5bf15	0.11999337
54	0xbeb507e3	-0.3535758
55	0xbe8d7569	-0.2762864
56	0xbeea7f5d	-0.45800295
57	0xbe99347c	-0.29922855
58	0xbe86a77e	-0.2629966
59	0xbe3f9d37	-0.18712316
60	0x3ddc126d	0.10745702
61	0x3d2dfca7	0.042477276
62	0x3db96f3d	0.0905442
63	0x3af3ac32	0.0018590747
64	0x3db339b3	0.0875124
65	0x3cbe3000	0.023216248
66	0x3ac4f7f4	0.0015027509
67	0xbcd54439	-0.026033508
68	0xbb0943e1	-0.0020945
69	0xbdb1506c	-0.086579174
70	0x3bc1f007	0.005918506
71	0xbd8c3834	-0.068466574
72	0xbce89ede	-0.028396066
73	0x3be3c404	0.006950857
74	0xbd223748	-0.0396035
75	0xbdb3b15e	-0.087740645
76	0xbdd0cd01	-0.101953514
77	0xbdaf2a94	-0.08553043
78	0x3e024d05	0.12724693
79	0x3db6c7d4	0.08924833
80	0x3df5353c	0.11973044
81	0xbc5b28cd	-0.013376427
82	0xbdd0749b	-0.10178491
83	0xbde5fb9b	-0.112296306
84	0xbeb743f9	-0.35794047
85	0xbe9337df	-0.28753564
86	0xbeaa76fd	-0.33293906
87	0x3e4161df	0.18884991
88	0x3e611e47	0.21984206
89	0x3e80711e	0.25086302
90	0x3db7c6ae	0.08973442
91	0x3dde07d4	0.10841337
92	0x3dd54d79	0.10415167
93	0xbdd1f912	-0.102525845
94	0xbdd80cab	-0.10549291
95	0xbdf52bc5	-0.11971239
96	0xbd9551ba	-0.07290979
97	0xbd964974	-0.07338229
98	0xbde67fec	-0.11254868
99	0xbb8b9ecd	-0.004260874
100	0x3ca9c1d0	0.0207223
101	0x3d0985c1	0.033574823
102	0xbe182b13	-0.14860182
103	0xbdb7d033	-0.08975258
104	0xbdfeb4cf	-0.1243683
105	0x3d1887a0	0.037238717
106	0x3cebeaba	0.02879845
107	0xbde3e453	-0.11127534
108	0xbdd089b3	-0.10182514
109	0xbdf4271a	-0.119215205
110	0x3ca7293d	0.020405406
111	0xbd49f332	-0.049304195
112	0x3cab520e	0.02091315
113	0x3d3ec46c	0.04657404
114	0x3daa538b	0.08316716
115	0x3e5da698	0.21645582
116	0x3d7ec5bb	0.06220029
117	0xbdc50cbc	-0.096215695
118	0xbe1e718e	-0.15473005
119	0xbe0d78fc	-0.13815683
120	0xbda710b9	-0.081574865
121	0xbe1fdf9a	-0.15612641
122	0xbe11360d	-0.14180775
123	0xbd62d1c7	-0.05537584
124	0x3cafe288	0.021470323
125	0x3c4f0d95	0.012637516
126	0xbc575362	-0.013142439
127	0xbc2269ae	-0.009912891
128	0x3d0b689a	0.034035303
129	0xbd0f2999	-0.03495178
130	0xbd55ad05	-0.052166957
131	0xbdcbe39b	-0.09955522
132	0x3c7cf784	0.015439872
133	0xbd598dab	-0.05311362
134	0xbcae0937	-0.021244628
135	0x3dfc71cc	0.123263925
136	0xbd37d76c	-0.044883177
137	0xbe0bf68a	-0.13668266
138	0x3d56ad7b	0.052411538
139	0x3deb4903	0.11488535
140	0x3e287135	0.16449435
141	0x3de59a8f	0.1121112
142	0x3e22a5eb	0.15883605
143	0x3e153550	0.14571118
144	0xbdf48a7a	-0.11940475
145	0xbdf0bfa1	-0.117553
146	0xbdf973e7	-0.1218031
147	0xbe006586	-0.12538728
148	0xbdf02ab9	-0.11726899
149	0xbd55a35f	-0.052157756
150	0xbc62b1e5	-0.013836359
151	0xbc92922d	-0.017891968
152	0x3d10c523	0.035344254
153	0xbd2c5899	-0.04207668
154	0x3bb0c425	0.005394476
155	0x3e2601ca	0.1621162
156	0xbd224376	-0.039615117
157	0xbd13c199	-0.0360733
158	0xbd18bae5	-0.03728761
159	0xbdd4289b	-0.103593074
160	0xbc90cbaa	-0.01767524
161	0xbd9ff265	-0.07809905
162	0xbdd8eeb7	-0.10592406
163	0xbd96e381	-0.07367612
164	0xbd833b83	-0.06407835
165	0xbe16d754	-0.14730579
166	0xbdab153f	-0.08353662
167	0xbd001dcb	-0.031278413
168	0x3d3cfdd3	0.046140503
169	0x3c5e64b5	0.013573815
170	0x3c7bd1ab	0.015369813
171	0xbe53a864	-0.20669705
172	0xbe350577	-0.17677866
173	0xbe826724	-0.25469315
174	0xbefd0694	-0.4941908
175	0xbe83a8b7	-0.25714657
176	0xbe9de39b	-0.30837712
177	0x3e31aac3	0.17350297
178	0x3c9cf768	0.019160941
179	0x3e2b9f90	0.16760087
180	0x3d865035	0.06558267
181	0xbcccd4a3	-0.025003737
182	0xbc68d003	-0.01420975
183	0x3e1d1952	0.1534169
184	0x3e44cd41	0.19218923
185	0x3e1ef9d1	0.15524985
186	0xbd19c0bf	-0.037537333
187	0xbc2d76e5	-0.010587429
188	0x3d4cc779	0.04999492
189	0xbd89327d	-0.06699083
190	0xbdcd22ad	-0.100163795
191	0xbdce3ed2	-0.10070576
192	0xbd91edec	-0.07125458
193	0xbdbdaddd	-0.092616774
194	0xbd7984c1	-0.06091762
195	0xbd0de9d2	-0.034646817
196	0x3d64aab5	0.05582686
197	0xbe3d0f4f	-0.18462871
198	0x3c722aa3	0.014780673
199	0xbcf7142f	-0.030160991
200	0xbd74393a	-0.059624888
201	0xbd850863	-0.0649574
202	0xbd962cbb	-0.073327504
203	0xbc3b4320	-0.011429578
204	0x3ba52af8	0.0050405227
205	0xbc2b226a	-0.010445217
206	0xbca3fe5c	-0.020018749
207	0xbc78cd85	-0.015185718
208	0xbca1188e	-0.019665029
209	0xbd0d10ae	-0.034439735
210	0x3d1d52da	0.03840909
211	0x3cc20d9b	0.023688128
212	0xbcf9f042	-0.030510072
213	0xbd10d4fe	-0.035359375
214	0xbc6d9e90	-0.014503136
215	0xbcb0fdd9	-0.021605419
216	0xbe0d9bae	-0.13828918
217	0xbcea5288	-0.028603807
218	0xbd237c38	-0.039913386
219	0xbe082090	-0.13293672
220	0xbd3adb1f	-0.045619126
221	0xbcac46ab	-0.02102979
222	0xbd9ce720	-0.07661271
223	0xbd299e3c	-0.04141067
224	0xbda24437	-0.07923167
225	0xbecee6be	-0.40410417
226	0xbe6e1ddc	-0.23253578
227	0xbeaa5254	-0.33265936
228	0xbf0db2c2	-0.5535089
229	0xbe17047e	-0.14747807
230	0xbeadab71	-0.33919862
231	0x3e5cf766	0.2157875
232	0x3e74f5c9	0.23921885
233	0x3e2c2b94	0.16813499
234	0x3b78ef25	0.0037984338
235	0x3c54825f	0.012970536
236	0x3ceacd93	0.028662479
237	0xbcacc1bc	-0.021088473
238	0xbd6fa04f	-0.05850249
239	0xbd94185a	-0.07231207
240	0xbd9ff496	-0.07810323
241	0xbdcf4da5	-0.101222314
242	0xbd9e6ea4	-0.07735947
243	0xbe2e24aa	-0.17006174
244	0xbdae6eb2	-0.08517207
245	0xbdee1e04	-0.11626819
246	0x3abd7fd1	0.0014457648
247	0xbda7dab1	-0.08196009
248	0xbb8939cd	-0.0041877986
249	0x3e19a422	0.15004018
250	0x3cff5748	0.031169549
251	0xbcf6b892	-0.030117307
252	0x3dbffaff	0.093740456
253	0xbd8c9b33	-0.068655394
254	0xbe2414ae	-0.16023514
255	0x3cad2dc7	0.021139992

conv2_1.bias f4 [32]
0	0x3b80ed07	0.003934506
1	0xbd57798f	-0.05260616
2	0xbbeaafb6	-0.0071620597
3	0x3b6c9cc2	0.0036104177
4	0xbd4fe965	-0.05075969
5	0xbd6f81c8	-0.05847338
6	0xbdb805ec	-0.089855045
7	0xbdaf63c6	-0.08563952
8	0xbda8cbbe	-0.08241986
9	0xbd00e63f	-0.03146958
10	0xbdb137d6	-0.08653228
11	0x3d795aee	0.060877733
12	0xbbe9ed37	-0.007138874
13	0xbd3810ab	-0.04493777
14	0xbcb0782e	-0.021541681
15	0x3c0b2606	0.008492952
16	0xbb8e8b2e	-0.0043500876
17	0xbd2438ba	-0.04009316
18	0xbd460d6e	-0.04835265
19	0xbd980410	-0.0742265
20	0xbd8e1754	-0.06938043
21	0xbb759a86	-0.0037476136
22	0xb8786638	-5.9223006e-05
23	0xbbecfb5a	-0.007232112
24	0xbc725748	-0.014791317
25	0xbc8beabd	-0.017079705
26	0xbd89c934	-0.067278296
27	0x3bbac1c6	0.005699369
28	0xbd7324d4	-0.059361294
29	0xbc809b24	-0.015698977
30	0x3cf356f0	0.029704541
31	0x3be90049	0.0071106297

conv2_2.weight f4 [32, 32, 3, 3]
0	0xbe90132d	-0.2813963
1	0xbdf233f9	-0.11826319
2	0xbe7a0a21	-0.24417926
3	0xbd7f995e	-0.06240212
4	0x3cd62561	0.02614087
5	0xbdb45987	-0.088061385
6	0x3d6195e7	0.0550746
7	0x3e2b329b	0.16718523
8	0x3e29cd41	0.16582204
9	0xbe575de0	-0.21031904
10	0xbe2c413b	-0.16821758
11	0xbe7057e0	-0.23471022
12	0x3cf90dc2	0.030402068
13	0x3b3c6abc	0.0028750142
14	0x3d6c3d5b	0.0576757
15	0x3d185217	0.037187662
16	0x3d8b6865	0.06807021
17	0x3d7086e2	0.058722384
18	0x3d14155e	0.03615319
19	0x3ce87a66	0.028378677
20	0x3c868c53	0.016424334
21	0x3ca08de8	0.019598916
22	0x3c94de37	0.018172367
23	0x3d295fe4	0.041351214
24	0x3ca29a42	0.019848946
25	0xbd442586	-0.047887348
26	0x3d010d23	0.03150667
27	0xbebfc696	-0.37456197
28	0xbea52b98	-0.32259822
29	0xbec9c6e9	-0.3940957
30	0x3e09f94e	0.13474008
31	0x3e153ae5	0.14573248
32	0x3e2a2886	0.16617021
33	0x3e96218b	0.29322466
34	0x3ebd34d1	0.36954358
35	0x3ea2e7d2	0.3181749
36	0xbcd129c3	-0.025532609
37	0x3c97e119	0.018539952
38	0x3c375ae4	0.011191104
39	0x3e17a5df	0.14809369
40	0x3e1636b9	0.14669313
41	0x3e11e1ea	0.14246336
42	0xbe206236	-0.15662464
43	0xbe3c6141	-0.18396474
44	0xbda8a9c9	-0.08235509
45	0xbe14c5b7	-0.14528547
46	0xbdb6603b	-0.08905073
47	0xbe088632	-0.13332441
48	0x3d9b9245	0.07596258
49	0x3d00046e	0.031254224
50	0x3d0663ac	0.0328099
51	0x3d034c3f	0.032055136
52	0x3da789d5	0.08180586
53	0x3db58e8e	0.08865081
54	0xbd2f1d6b	-0.042752665
55	0xbd396813	-0.04526527
56	0xbe0632fb	-0.13105385
57	0xbc1d4f5c	-0.00960144
58	0xbcdefe49	-0.027220862
59	0xbd526d48	-0.05137375
60	0x3e052caa	0.13005319
61	0x3d3d9af6	0.04629036
62	0x3d9bc3c1	0.076056965
63	0xbda97c6a	-0.08275683
64	0xbe110a10	-0.14163995
65	0xbd8764d7	-0.066110305
66	0x3e459086	0.19293413
67	0x3e683e9a	0.2268013
68	0x3e4c6c45	0.19963177
69	0x3d456578	0.04819247
70	0x3d8ff09b	0.07028314
71	0x3d0e1e0f	0.034696635
72	0xbd67d8cd	-0.05660324
73	0xbd52ff17	-0.051512804
74	0xbd5b1401	-0.053485874
75	0x3d4df012	0.050277777
76	0x3dce3e0d	0.10070429
77	0x3de81a84	0.113331825
78	0x3d2b26e5	0.04178514
79	0xbbb39d60	-0.005481407
80	0x3d016bda	0.031596996
81	0xbe74ffd8	-0.23925722
82	0xbe7451a8	-0.23859274
83	0xbe823959	-0.25434378
84	0x3d628a62	0.055307753
85	0x3d1e52b4	0.03865309
86	0x3de83173	0.11337557
87	0x3d4fbdc7	0.050718095
88	0x3da7ea90	0.08199036
89	0x3e07a6df	0.1324725
90	0xbdea9663	-0.11454465
91	0xbe0c1669	-0.13680424
92	0xbe25ef5c	-0.1620459
93	0xbd2bf775	-0.04198404
94	0x3d920242	0.07129337
95	0x3dc17c83	0.09447577
96	0x3df5dd06	0.120050475
97	0x3deac6e2	0.11463715
98	0x3db8e21e	0.090275034
99	0xbe8dac61	-0.27670577
100	0xbe6cb617	-0.23116337
101	0xbe878d75	-0.2647511
102	0x3ec8217b	0.39088044
103	0x3ed0772d	0.40715924
104	0x3ee06840	0.43829536
105	0x3ebe2e65	0.3714477
106	0x3ec860e8	0.39136434
107	0x3ebe8a11	0.3721471
108	0xbda4e4bb	-0.080514394
109	0xbc21c2fd	-0.009873149
110	0xbd9c8de3	-0.0764425
111	0x3d29967e	0.041403286
112	0x3da0eb5d	0.07857392
113	0x3d60b363	0.054858577
114	0x3dd58333	0.10425415
115	0x3d6e4922	0.058175214
116	0x3c8189c1	0.015812756
117	0xbe16afed	-0.14715548
118	0xbe3929fc	-0.18082422
119	0xbe2a5957	-0.16635643
120	0xbd76459d	-0.060124982
121	0xbc7d8f56	-0.0154760685
122	0x3d0699e0	0.03286159
123	0x3d391bce	0.045192532
124	0x3db90fb6	0.090362
125	0x3d91069b	0.07081338
126	0x3c00f485	0.007870798
127	0x3caa2736	0.02077065
128	0x3bc56de6	0.006025064
129	0xbcdb171a	-0.026744414
130	0xbd205b7a	-0.03914974
131	0xbc81067a	-0.015750159
132	0xbd97449c	-0.07386133
133	0xbdea3b23	-0.11437061
134	0xbd943277	-0.07236188
135	0xbdc60b67	-0.096701436
136	0xbe306277	-0.17225061
137	0xbe048f46	-0.1294528
138	0xbe0e0be5	-0.13871725
139	0xbdb369ae	-0.08760391
140	0xbe0bfb27	-0.13670026
141	0xbe00fed1	-0.12597205
142	0xbe5fc748	-0.21853364
143	0xbdd758e0	-0.105149984
144	0xbe1b18be	-0.15146157
145	0xbdd90f76	-0.10598652
146	0xbe2393b6	-0.15974316
147	0x3e25a9de	0.1617808
148	0x3e140dd4	0.144584
149	0x3dd080cd	0.10180817
150	0x3d40f197	0.047105398
151	0x3ca74ae0	0.020421445
152	0x3da69d3e	0.0813546
153	0x3d114cef	0.03547376
154	0xbdd70c72	-0.10500421
155	0x3cd21893	0.025646484
156	0x3ccf75ca	0.02532472
157	0x3c68cbfb	0.014208789
158	0xbda2e8ce	-0.0795456
159	0xbd2be0b9	-0.04196236
160	0x3d878cfa	0.06618686
161	0xbcbda5df	-0.023150383
162	0x3c023c59	0.007948958
163	0xbbbbbc13	-0.0057292073
164	0xbc5fffec	-0.013671856
165	0x3d8a05ac	0.06739363
166	0x3d97b873	0.07408228
167	0x3cca7ad9	0.024716781
168	0xbc4f41cb	-0.012649964
169	0xbcd8f194	-0.02648238
170	0xbc3819a5	-0.011236583
171	0xbeb27ba3	-0.34859952
172	0xbeaaa7fc	-0.33331287
173	0xbea83ad8	-0.32857394
174	0xbd46bbe3	-0.048519026
175	0xbd35fffc	-0.04443358
176	0xbdaafdb9	-0.08349175
177	0xbce2a0b7	-0.027664525
178	0x3c4bd032	0.012439774
179	0x3c235dce	0.009971095
180	0xbe400999	-0.18753661
181	0xbe000e15	-0.12505372
182	0xbe354599	-0.1770233
183	0xbd42fbec	-0.047603533
184	0x3c98f90d	0.018673444
185	0xbc7674b7	-0.015042475
186	0xbde392c2	-0.11111976
187	0xbd3e0a24	-0.04639639
188	0xbe023a67	-0.12717591
189	0xbe7972b7	-0.24360166
190	0xbdee0b02	-0.11623193
191	0xbdece6d9	-0.11567468
192	0x3cd7a4d2	0.02632371
193	0x3b783c25	0.0037877646
194	0xbccef6e5	-0.025264213
195	0xbe1e0e06	-0.15435037
196	0xbe8d8996	-0.27644032
197	0xbe7dfcbb	-0.2480344
198	0x3d1e3070	0.038620412
199	0x3b44c4ef	0.0030024608
200	0x3c19d631	0.009389446
201	0x3d4d1a65	0.050074
202	0xbc706790	-0.014673129
203	0xbc0e83d2	-0.008698421
204	0xbd28deaa	-0.041227974
205	0xbd87ea4c	-0.066364855
206	0x3bd94c2e	0.006631396
207	0xbdce8f17	-0.10085886
208	0x3c66d9d3	0.014090019
209	0xbd9ba41b	-0.0759966
210	0x3d0693b4	0.032855704
211	0xbc02aac2	-0.007975282
212	0xbc58c70f	-0.013231053
213	0x3ddbb55f	0.10727953
214	0x3d273785	0.040824432
215	0x3d1c696d	0.03818648
216	0xbcf04e8c	-0.029334329
217	0x3cb0520b	0.021523496
218	0x3c7a3690	0.015271798
219	0xbc316188	-0.010826476
220	0xbd3a9138	-0.045548648
221	0xbd2ab5c4	-0.04167725
222	0xbe0bf10c	-0.13666171
223	0xbe037ca1	-0.12840511
224	0xbe18e68f	-0.14931701
225	0xbe6d6e83	-0.23186688
226	0xbe46e5cd	-0.194236
227	0xbe49cd77	-0.19707285
228	0x3caf3944	0.021389611
229	0xbcc20756	-0.023685139
230	0xbad78acb	-0.0016444562
231	0x3dc47e85	0.09594444
232	0x3da29a6b	0.07939609
233	0x3e13810b	0.14404695
234	0x3dc2fd07	0.095209174
235	0xbba96e29	-0.005170603
236	0x3d0d62c7	0.03451803
237	0x3cb9b7b1	0.022670599
238	0x3d47be60	0.04876554
239	0x3d0508a4	0.032478943
240	0x3e02dc51	0.12779357
241	0x3e3577ba	0.17721453
242	0x3bd2a0f2	0.0064278776
243	0xbcf2d69f	-0.029643355
244	0xbd8dbc02	-0.06920625
245	0xbe0109e1	-0.12601425
246	0x3e01a5ef	0.12660955
247	0x3d369af1	0.044581357
248	0x3c9e91e7	0.019356681
249	0x3c9b9f92	0.018996987
250	0xbd3c1daa	-0.045926727
251	0x3bebc86c	0.007195523
252	0xbe02f0b2	-0.1278713
253	0xbe24a0d1	-0.16076972
254	0xbe2185e3	-0.1577373
255	0x3d8d456a	0.06898005

conv2_2.bias f4 [32]
0	0xbdb644da	-0.08899851
1	0xbd346e42	-0.044050463
2	0xbd5dd226	-0.05415549
3	0x3d29c3e5	0.041446585
4	0x3c8bbf79	0.017059075
5	0xbd1a5010	-0.03767401
6	0xbdba014a	-0.09082277
7	0x3d371af1	0.044703428
8	0xbd5e43f9	-0.054264043
9	0xbd6873f7	-0.056751218
10	0x3c5ccfe9	0.013477304
11	0xbcef8de0	-0.029242456
12	0x3d6a9498	0.057270616
13	0x3d75bc15	0.059993822
14	0xbd616216	-0.055025183
15	0x3ca752ed	0.020425284
16	0xbc634bcd	-0.013873053
17	0xbcb0798f	-0.021542339
18	0xbc00d301	-0.007862807
19	0x3e0303fb	0.12794487
20	0x3d6c92a5	0.05775704
21	0x3ca61e06	0.020277988
22	0x3c4341b1	0.0119175175
23	0xbd3d32ad	-0.046190906
24	0xbdb46f59	-0.088103004
25	0xbda1c78c	-0.07899389
26	0xbd4aa4bd	-0.049473513
27	0xbb8e073c	-0.0043343585
28	0x3d362ca9	0.044476185
29	0xbd148bc5	-0.036266107
30	0xbd4b1c9e	-0.04958784
31	0xbdec6a27	-0.115436845

conv3.weight f4 [64, 64, 3, 3]
0	0x3cedda84	0.02903486
1	0x3ce69ebb	0.02815186
2	0x3d15004b	0.036377233
3	0x3cf5bdce	0.029997732
4	0x3ced4923	0.028965538
5	0x3bdc070c	0.0067147072
6	0xbcd3c718	-0.025851771
7	0xbc6412cd	-0.013920498
8	0xbc3105a9	-0.010804572
9	0xbd1da206	-0.038484596
10	0x3cb3202a	0.021865923
11	0x3ac3de1f	0.0014943517
12	0x3c1cf04f	0.009578778
13	0xbbae66c7	-0.0053223106
14	0x3bcbcb43	0.006219299
15	0x3d7b3201	0.061326984
16	0x3c8fca51	0.017552527
17	0xbbef7f16	-0.007308851
18	0x3e005cd6	0.12535414
19	0xbccd92b2	-0.025094364
20	0x3de8414a	0.11340578
21	0xbdb8b293	-0.09018435
22	0xbda0f0fc	-0.07858464
23	0xbd7efa84	-0.06225063
24	0x3e0af2e5	0.1356922
25	0xbdbe5b90	-0.09294808
26	0x3d4fac74	0.050701573
27	0x3d3a378f	0.04546314
28	0x3da34c9c	0.079735965
29	0x3d72b7b4	0.059257224
30	0x3d93bf37	0.07214206
31	0x3d0d28cb	0.03446273
32	0x3d58a7fd	0.05289458
33	0xbcf348a1	-0.029697718
34	0x3c448b36	0.011996081
35	0xbc3750e1	-0.011188717
36	0xbdad29d2	-0.08455242
37	0xbdbd410e	-0.09240924
38	0xbdc3859e	-0.0954697
39	0xbd975afd	-0.073904015
40	0xbdb9442f	-0.09046208
41	0xbdbdab8d	-0.09261236
42	0xbda1a68b	-0.07893094
43	0xbdb5ddf9	-0.088802285
44	0xbde2e3bc	-0.11078593
45	0xbd10f2df	-0.03538787
46	0xbd3183ec	-0.0433387
47	0xbdc60dc8	-0.09670597
48	0xbd2703dd	-0.04077517
49	0xbd4df7be	-0.050285093
50	0xbde942e9	-0.11389715
51	0xbd495510	-0.049153388
52	0xbcb6fcd3	-0.022337353
53	0xbde6b1c8	-0.11264378
54	0x3da11e19	0.07867069
55	0x3db6a23c	0.089176625
56	0x3dad7e5a	0.08471365
57	0x3dbf528b	0.09341916
58	0x3db14db0	0.08657396
59	0x3da41b76	0.0801305
60	0x3da97d02	0.082757965
61	0x3d8a63f2	0.06757344
62	0x3d9ae5ad	0.075633384
63	0x3cc4fa13	0.024045026
64	0x3d297011	0.04136664
65	0x3d0b73f8	0.034046143
66	0x3bf1a80b	0.0073747686
67	0x3bc0ca86	0.0058835177
68	0x3c9902c4	0.018678077
69	0xbc3d041a	-0.011536622
70	0x3c2f4de1	0.01069972
71	0x3c9b7a59	0.018979238
72	0xbd7b2fc1	-0.06132484
73	0xbd62a074	-0.0553288
74	0xbda4a4b7	-0.08039229
75	0x3bbbd476	0.0057321144
76	0x3dd47a42	0.10374881
77	0x3cb2da11	0.021832498
78	0xbd6265b3	-0.05527277
79	0xbd3665ba	-0.044530608
80	0xbcf6e263	-0.030137246
81	0xbc94dc18	-0.018171355
82	0xbc0cfaae	-0.008604689
83	0xbc88ed26	-0.016714644
84	0xbc9e9092	-0.019356046
85	0xbbc7bc81	-0.0060954695
86	0xbcf9ce1d	-0.03049379
87	0xbd792b6a	-0.06083242
88	0xbcc907b8	-0.024539813
89	0xbd1fade9	-0.038984213
90	0xbae4dae2	-0.0017460252
91	0xbc3a541d	-0.011372593
92	0xbbd722b6	-0.006565417
93	0xbca734ad	-0.02041086
94	0xbc98385f	-0.018581567
95	0xbcbf06eb	-0.023318728
96	0x3b787da9	0.0037916696
97	0xbd1581b6	-0.036500655
98	0xbd7263da	-0.059177257
99	0x3d0b1288	0.03395322
100	0x3e0b6520	0.13612795
101	0x3e23268e	0.15932676
102	0xbbfb773f	-0.0076741274
103	0x3ded1684	0.1157656
104	0x3e132d60	0.14372778
105	0x3d6db96e	0.058038168
106	0x3e2c9789	0.16854681
107	0x3e26d81d	0.16293378
108	0x3ce93807	0.028469099
109	0x3ccce7bf	0.025012849
110	0x3d0bdaff	0.034144398
111	0x3d54cf6e	0.051955633
112	0xbc223d10	-0.009902254
113	0x3c099152	0.0083964635
114	0x3cf6bb9d	0.030118758
115	0x3d5cf5db	0.053945404
116	0x3d4d9251	0.050188366
117	0x3d0f1033	0.03492756
118	0x3d5bbfc4	0.05364968
119	0x3d055348	0.032550126
120	0xbd690f85	-0.056899566
121	0xbd113723	-0.035452973
122	0xbdaae00b	-0.08343514
123	0xbe13f9eb	-0.14450805
124	0xbe008306	-0.12549981
125	0xbe16e48c	-0.14735621
126	0xbd1028a2	-0.035195
127	0x3c8343ce	0.016023543
128	0xbcd5f402	-0.026117329
129	0x3c52408f	0.012832775
130	0xbbaa96b3	-0.005205953
131	0xbcdb0bf0	-0.02673909
132	0xbd835c67	-0.06414109
133	0xbcb7019c	-0.022339635
134	0xbc8baf19	-0.017051267
135	0x3d078c54	0.03309281
136	0x3d5aa177	0.05337664
137	0x3afa7908	0.0019109556
138	0x3d03bb2a	0.032160915
139	0x3d2b7e9b	0.041868787
140	0x3d450893	0.04810388
141	0x3d68bf70	0.056823194
142	0x3d2b8dfc	0.041883454
143	0x3c9c3c8e	0.019071843
144	0xbd336848	-0.043800622
145	0xbcdde1df	-0.027085243
146	0xbd108f5d	-0.035292972
147	0x3d6f5356	0.058429085
148	0x3c8b7a62	0.01702613
149	0xbbb2b952	-0.005454221
150	0x3c886862	0.016651336
151	0x3ca336bc	0.01992356
152	0x3d4c2fb5	0.049850184
153	0x3ca50615	0.020144502
154	0x3cc5e570	0.024157256
155	0x3d03cce4	0.03217782
156	0xbc0aea43	-0.008478704
157	0xbca37f8f	-0.019958286
158	0xbd32b40d	-0.04362874
159	0x3e023879	0.12716855
160	0x3db3cf06	0.08779721
161	0x3df6f82c	0.12059054
162	0xbdeaa7cb	-0.11457785
163	0xbd843f3b	-0.06457373
164	0xbd583c52	-0.0527919
165	0xbe33604f	-0.17517208
166	0xbe1250ed	-0.14288683
167	0xbe2b4aff	-0.16727827
168	0xbd48da79	-0.049036477
169	0xbd763f23	-0.060118806
170	0xbdb32b0f	-0.08748447
171	0x3a2dd9f2	0.00066319027
172	0x3d340ccb	0.043957513
173	0xb927fa0a	-0.00016019508
174	0xbde6c8ed	-0.11268792
175	0xbdcbe920	-0.099565744
176	0xbdf75e89	-0.12078578
177	0x3d2c31d6	0.042039715
178	0x3cd03a60	0.02541846
179	0x3ca276ab	0.019831976
180	0xbcdbe66d	-0.026843274
181	0x3c5a47e7	0.013322807
182	0x3bdc54a7	0.0067239585
183	0x3cbd2de9	0.02309318
184	0x3cddbf71	0.027068825
185	0x3b6eceaf	0.003643911
186	0x3d491f4a	0.049102105
187	0x3d88801f	0.06665062
188	0x3cf115b8	0.029429302
189	0x3d2dc395	0.04242285
190	0xbd20a524	-0.03921999
191	0xbc8fa8e2	-0.017536584
192	0xbc3c8a09	-0.0115075195
193	0xbd50dd8c	-0.050992534
194	0xbd1d85fc	-0.038457856
195	0x3bb77774	0.0055989567
196	0xbd9c42f0	-0.07629955
197	0x3c7a87f7	0.015291206
198	0x3d9450e0	0.07241988
199	0xbc54dea2	-0.012992533
200	0x3d01b657	0.031668033
201	0x3da2fefe	0.07958792
202	0x3d4cf013	0.05003364
203	0x3d7554bb	0.05989526
204	0x3dcd0861	0.10011364
205	0x3dabc6bb	0.08387514
206	0x3daeb279	0.08530135
207	0xbc81a292	-0.01582459
208	0xbcd386aa	-0.025821049
209	0xbbd79175	-0.006578619
210	0xbdc705ce	-0.09717904
211	0xbd571b4c	-0.052516267
212	0xbd80bf1a	-0.0628645
213	0x3d849769	0.06474192
214	0x3d8176e1	0.063215025
215	0x3d9c4d9f	0.076319925
216	0x3b6cbffe	0.0036125178
217	0xbdac71c9	-0.0842014
218	0xbb842cdb	-0.0040336675
219	0xbd7046b3	-0.058661174
220	0xbdb8fd24	-0.09032658
221	0xbdc449a5	-0.09584359
222	0xbbc46f76	-0.0059947325
223	0xbd8fbad0	-0.070180535
224	0xbd878ea5	-0.06619004
225	0xbc14671e	-0.009057788
226	0x3cd3430f	0.025788812
227	0xbcae3504	-0.021265514
228	0x3bfcd132	0.0077153677
229	0x3c225154	0.009907085
230	0xbcfa7e68	-0.030577853
231	0x3d3b9492	0.045795985
232	0x3cac443f	0.021028636
233	0xbd30d6a1	-0.043173436
234	0xbc70f461	-0.014706702
235	0xbd07a4aa	-0.03311602
236	0xbd451d76	-0.0481238
237	0x3ccb0fd5	0.024787823
238	0xbc2cfeba	-0.010558778
239	0x3b4d6029	0.0031337833
240	0xbcdea98b	-0.027180454
241	0xbd103183	-0.035203468
242	0xbcd6d4f9	-0.0262246
243	0xbcb4271f	-0.02199131
244	0xbc6702b2	-0.014099764
245	0xbc460d48	-0.012088127
246	0x3d301e1c	0.042997465
247	0x3c436cfc	0.011927839
248	0x3ca234de	0.0198006
249	0x3ba2b988	0.0049659647
250	0xbd82d28c	-0.06387815
251	0xbd517aba	-0.05114243
252	0x3d18a8eb	0.037270468
253	0x3d221d2b	0.039578598
254	0x3cd990f9	0.026558386
255	0x3d19148d	0.037373114

conv3.bias f4 [64]
0	0x3c208584	0.009797458
1	0xbb22e8eb	-0.0024858068
2	0xbcabfc9f	-0.020994483
3	0xbe04a493	-0.12953405
4	0x3d0ac464	0.0338787
5	0xbdc02fad	-0.093840934
6	0xbdda0996	-0.106463596
7	0xbdafeff9	-0.08590693
8	0xbaafcf93	-0.0013413302
9	0x3cc7dca5	0.024397204
10	0x3d2fc196	0.042909227
11	0xbd9eb1b9	-0.07748742
12	0xbe30fba3	-0.17283492
13	0x3ba8d520	0.0051523596
14	0x3d5197fc	0.051170334
15	0xbdabee28	-0.08395034
16	0xbc3fa81a	-0.011697793
17	0x3dd7e2f5	0.105413355
18	0x3b355160	0.0027666911
19	0xbde754d1	-0.11295474
20	0xbd287e00	-0.041135788
21	0x3d33b1c4	0.043870702
22	0xbd58a4c2	-0.0528915
23	0xbb3ecf16	-0.0029115132
24	0xbc38d8b9	-0.011282139
25	0x3d6a300b	0.057174724
26	0xbd527b9e	-0.05138742
27	0xbdfee25d	-0.12445519
28	0xbd90758d	-0.07053671
29	0xbd8bd065	-0.068268575
30	0xbdde99da	-0.108691886
31	0x3bde1b10	0.0067781284
32	0x3cd30291	0.02575806
33	0xbbc15f07	-0.0059012207
34	0xbd811c5b	-0.063042365
35	0xbc6d621a	-0.014488721
36	0x3b949e11	0.0045354445
37	0x3b9db978	0.0048133694
38	0x3cb52492	0.022112165
39	0x3d3f7fe9	0.046752844
40	0x3d3542ca	0.04425315
41	0xbe1ac78b	-0.15115182
42	0xbe0eb58b	-0.1393644
43	0xbe29c02e	-0.16577217
44	0xbe23c36b	-0.15992515
45	0x3d31537a	0.0432925
46	0xbd5ef934	-0.054436877
47	0xbd27a4c3	-0.040928613
48	0x3d2223df	0.03958499
49	0xbc6084c2	-0.013703527
50	0xbd93e321	-0.07221056
51	0xbdde8dab	-0.10866865
52	0x3d48a23f	0.048982855
53	0x3d2ef8f0	0.042717874
54	0x3d96e1cd	0.07367287
55	0xbd8d8d22	-0.069116846
56	0xbdb3a807	-0.08772283
57	0xbdc888cb	-0.09791716
58	0x3b4aa6c5	0.0030922156
59	0xbe1c5b17	-0.15269123
60	0x3d7716ea	0.060324587
61	0xbd6cdbd1	-0.05782682
62	0x3d455e59	0.04818568
63	0xbdf5b64e	-0.119976625

conv4.weight f4 [64, 64, 3, 3]
0	0x3cb24dca	0.021765608
1	0x3b57f4c8	0.0032952297
2	0x3caa7cbb	0.02081143
3	0x3c890425	0.01672561
4	0xbc13f26c	-0.009029966
5	0xbb27f52d	-0.0025628314
6	0x3d86aa22	0.06575419
7	0x3cf3a06c	0.029739581
8	0xbc6ad4a2	-0.014332922
9	0x3b4f4acc	0.0031630276
10	0x3e30713c	0.17230695
11	0x3d163599	0.03667221
12	0x3de33165	0.11093406
13	0x3e57fcea	0.21092573
14	0x3e177faf	0.14794801
15	0xbe1275a1	-0.14302684
16	0x3d16e65a	0.036840774
17	0xbd8f063e	-0.069836125
18	0xbd960124	-0.07324436
19	0xbd6de12f	-0.05807608
20	0xbd93e9d9	-0.07222337
21	0x3db24cfd	0.087060906
22	0xbc3f6104	-0.011680845
23	0x3d8e6e9e	0.06954692
24	0xbda10703	-0.078626655
25	0xbd765d1b	-0.060147386
26	0xbd0bdf77	-0.03414866
27	0x3d8c8944	0.06862119
28	0xbbdb8c29	-0.006700058
29	0x3d1c352b	0.038136642
30	0x3d5b112b	0.05348317
31	0x3dd269dd	0.10274098
32	0x3db6d7d3	0.08927884
33	0x3cc019c0	0.023449779
34	0xbc4358c3	-0.011923018
35	0x3d651b6c	0.055934355
36	0xbd38e0fe	-0.045136444
37	0x3d188726	0.037238263
38	0xbb3ade36	-0.0028513796
39	0xbcc1fe2c	-0.023680769
40	0xbd244fbb	-0.0401151
41	0x3ced5fe0	0.02897638
42	0xbca24ff9	-0.019813525
43	0x3d1234fe	0.03569507
44	0xbcb0cd18	-0.021582171
45	0xbddd98ed	-0.10820184
46	0xbda2aa97	-0.07942694
47	0xbd84fbad	-0.06493316
48	0xbdc4783e	-0.09593247
49	0xbc7f16cd	-0.015569401
50	0xbd8c9c1b	-0.06865712
51	0xbe11ab56	-0.14225516
52	0xbe144aac	-0.1448161
53	0xbdce7f66	-0.10082893
54	0xbd224cbf	-0.039623972
55	0xbd51614c	-0.05111818
56	0xbd40a029	-0.04702774
57	0xbdab5413	-0.08365645
58	0xbd9b6903	-0.07588389
59	0xbd96e8cb	-0.073686205
60	0xbb7edc7e	-0.0038888748
61	0xbcd7fb6a	-0.026365
62	0xbd6f04ed	-0.058354307
63	0x3c6ae896	0.014337679
64	0xbcf0334b	-0.029321333
65	0x3d48620b	0.048921626
66	0xbcd1904e	-0.025581505
67	0xbd60f07a	-0.054916836
68	0xbc635be5	-0.01387689
69	0x3bef8adc	0.0073102545
70	0xbd81eea3	-0.063443445
71	0xbc62d15f	-0.013843863
72	0x3dcc262f	0.099682204
73	0x3d3ca44c	0.046055123
74	0x3dc289cd	0.0949894
75	0xbd4f0ca7	-0.050549176
76	0xbe07777a	-0.1322917
77	0xbd41e5ec	-0.04733841
78	0x3cf4cf8e	0.029884126
79	0xbc9170ea	-0.017754037
80	0x3c513711	0.0127694765
81	0x3d3215b0	0.043477714
82	0x3d4e9b22	0.050440915
83	0x3cfa031c	0.03051906
84	0x3d5a8c24	0.053356305
85	0x3cf8060a	0.030276317
86	0x3d8132fd	0.06308553
87	0x3bf0ef4a	0.007352744
88	0x3d5fbb75	0.054622132
89	0xbc2e499b	-0.010637666
90	0xbc242eff	-0.01002097
91	0x3c33ab60	0.010966152
92	0x3bf6f47f	0.0075364704
93	0x3d061f21	0.03274453
94	0xbcbc542a	-0.022989351
95	0xbb85fa1e	-0.004088654
96	0x3d352a7e	0.044229977
97	0xbc166a2e	-0.009180589
98	0x3cbb8f9a	0.022895623
99	0xbcb5a6e5	-0.022174308
100	0xbd567260	-0.05235517
101	0xbd1c1e03	-0.03811456
102	0xbdd6eeb5	-0.104947485
103	0x3c86dea5	0.016463587
104	0xbda64b5d	-0.08119843
105	0xbdcb242a	-0.09919007
106	0xbe065ecb	-0.13122098
107	0xbdb26bb3	-0.08711948
108	0x3bbabaf4	0.005698556
109	0xbaa4c721	-0.0012571552
110	0x3cf84891	0.03030804
111	0xbd0e6715	-0.034766275
112	0xbc6f46d8	-0.014604293
113	0xbd40c2e2	-0.047060855
114	0x3d32a5bf	0.0436151
115	0x3d4fea7c	0.05076073
116	0x3cae28cd	0.02125969
117	0x3de6b70f	0.112653844
118	0x3d664ba9	0.0562245
119	0x3d192b8f	0.037395056
120	0x3c04873b	0.008088882
121	0x3d3623eb	0.044467848
122	0x3c7836cf	0.015149786
123	0x3d46519b	0.04841767
124	0xbc04dc70	-0.008109197
125	0x3c47e205	0.012199883
126	0x3ddd3ae0	0.10802245
127	0xbd47aa6f	-0.048746523
128	0x3dda593f	0.106615536
129	0xbd37ea67	-0.044901278
130	0xbda26fe3	-0.07931497
131	0xbd3e5b75	-0.04647394
132	0x3dc4a880	0.09602451
133	0x3cfd5c46	0.030927788
134	0x3dee6ccb	0.11641844
135	0xbe13cc83	-0.14433484
136	0xbdd61548	-0.10453278
137	0xbe096a63	-0.1341949
138	0x3ddeb0a6	0.10873537
139	0x3e468228	0.19385588
140	0x3dce53dc	0.10074589
141	0xbdc49141	-0.095980175
142	0xbd764753	-0.060126614
143	0xbe13938d	-0.14411755
144	0xbd3d9393	-0.046283316
145	0x3d012159	0.031525943
146	0x3c0d48ca	0.008623311
147	0x3a64f43c	0.00087339035
148	0xbd0d2785	-0.034461517
149	0xbc83ff95	-0.016113082
150	0x3b47dcc9	0.0030496588
151	0x3d15d755	0.03658231
152	0xbbfebbc1	-0.007773847
153	0x3d6a2b3c	0.057170138
154	0x3cb66b68	0.022268012
155	0x3bdac894	0.006676743
156	0xbc59dacc	-0.013296794
157	0x3d2b9756	0.041892372
158	0x3d4e1ab0	0.05031842
159	0x3d58d869	0.05294076
160	0x3bd66902	0.0065432796
161	0x3c971740	0.018443704
162	0x3d2e1ce1	0.04250801
163	0xbc6fadbf	-0.014628827
164	0x3cb23653	0.02175442
165	0x3d781efe	0.06057643
166	0xbc949cdc	-0.018141203
167	0x3d65de29	0.05612007
168	0x3d33b2f8	0.04387185
169	0x3d362415	0.044468004
170	0x3a95bebd	0.0011424642
171	0x3d453458	0.048145622
172	0x3d54de74	0.05196996
173	0x3daf496a	0.085589245
174	0xbdbc8694	-0.09205356
175	0xbd94a1fb	-0.07257458
176	0xbc14f7a7	-0.009092248
177	0x3c41cb5d	0.011828271
178	0x3cad4ddc	0.02115529
179	0x3cf8de43	0.03037942
180	0x3d4923fa	0.049106576
181	0xbc8b9b68	-0.017041877
182	0x3dc5302b	0.09628328
183	0x3d94035c	0.07227203
184	0xbd9214e4	-0.07132891
185	0x3d2876df	0.04112899
186	0x3deb7f06	0.11498837
187	0x3ccfad99	0.025351333
188	0x3d81146e	0.06302725
189	0xbc683910	-0.014173761
190	0xbd1100b8	-0.035401076
191	0xbcc8eabe	-0.024525996
192	0xbd3c4646	-0.045965455
193	0xbd84c425	-0.06482724
194	0xbde73c8d	-0.11290846
195	0x3ca4f096	0.020134252
196	0x3bf46b23	0.0074590608
197	0x3ca4d449	0.020120757
198	0xbd84c8f2	-0.0648364
199	0xbd6249a6	-0.055246018
200	0xbe087e62	-0.13329461
201	0x3cde86cf	0.027163891
202	0x3c05582d	0.0081386985
203	0x3d0e73c9	0.03477839
204	0xbda9ab01	-0.082845695
205	0xbcdc976e	-0.026927676
206	0xbdc85fe7	-0.09783917
207	0xbbc8e65f	-0.006130978
208	0xbcaf0ef4	-0.021369435
209	0xbc1dc03a	-0.00962835
210	0x3c2a5ec0	0.010398567
211	0xba6b9f29	-0.0008988255
212	0x3b1b4ac9	0.0023695698
213	0xbc98a794	-0.018634595
214	0xbabb453f	-0.0014287605
215	0x3c7e7d1c	0.015532758
216	0x3bd45b7b	0.006480632
217	0xbbfb0d44	-0.0076614935
218	0x3c4d020e	0.012512697
219	0x3df92b6b	0.121664844
220	0x3d774799	0.060371015
221	0x3e3fdeba	0.18737307
222	0xbd1f18e2	-0.03884209
223	0xbd98103b	-0.07424971
224	0xbdb39ec5	-0.08770517
225	0x3cb43f6d	0.0220029
226	0x3d67b618	0.056570143
227	0xbc842dc7	-0.01613511
228	0x3bac5bef	0.005259983
229	0x3ca41689	0.020030277
230	0x3d840404	0.064460784
231	0xbc48ab73	-0.012247908
232	0x3d4d55e3	0.050130736
233	0xbbd5fb13	-0.0065301745
234	0xbdd7a749	-0.10529954
235	0xbddb66b0	-0.107129455
236	0xbdd7b6d0	-0.105329156
237	0x3d22c6ff	0.03974056
238	0x3daaec69	0.08345873
239	0x3cc27f5e	0.023742374
240	0xbe0ea26c	-0.13929147
241	0xbd9ae373	-0.07562914
242	0xbdf2dfce	-0.118590936
243	0xbe34f3b4	-0.1767109
244	0xbdb10fe2	-0.086456075
245	0xbe3aca7e	-0.18241307
246	0x3dadc045	0.08483938
247	0x3dd2cdae	0.102931365
248	0x3de5363d	0.11191986
249	0xbe4edb63	-0.20200877
250	0xbe010bda	-0.12602177
251	0xbe354e92	-0.17705753
252	0x3d8dc473	0.06922235
253	0xbd151b99	-0.036403272
254	0x3d02d9b7	0.03194591
255	0x3dee5a2a	0.11638291

conv4.bias f4 [64]
0	0x3e3c349b	0.18379442
1	0x3e0bcc51	0.1365216
2	0xbe1b0227	-0.1513754
3	0x3e25c559	0.16188563
4	0x3e14066f	0.14455579
5	0xbe8f07ab	-0.27935538
6	0x3cb8c4e9	0.022554832
7	0xbd9c7b34	-0.07640687
8	0xbdf4032e	-0.11914669
9	0xbd00776d	-0.031363893
10	0xbdfbaa99	-0.12288398
11	0x3e1bc8f5	0.15213378
12	0x3e27afaf	0.16375612
13	0x3dd540e9	0.10412771
14	0x3e1be1de	0.1522288
15	0xbc97b375	-0.018518189
16	0xbe15fcad	-0.1464717
17	0xbb09b872	-0.002101448
18	0xbe6d16aa	-0.23153177
19	0xbe375a26	-0.17905483
20	0x3dd94a64	0.10609892
21	0xbe7fa9db	-0.24967138
22	0xbe3635bf	-0.1779394
23	0x3dd80344	0.10547498
24	0x3e063db4	0.13109475
25	0x3dbc5106	0.091951415
26	0x3d1947db	0.037422042
27	0x3e030e74	0.12798482
28	0xbdc0fc02	-0.09423067
29	0x3e135d78	0.14391124
30	0xbc7c0508	-0.015382059
31	0x3e30432c	0.17213124
32	0x3e2c30b9	0.16815461
33	0xbd995b0b	-0.07488068
34	0x3e04e1b3	0.12976722
35	0x3d6514cf	0.055928048
36	0xbe31ae92	-0.1735175
37	0xbe8237be	-0.25433153
38	0xbd7521c8	-0.05984667
39	0xbc1c139f	-0.009526162
40	0xbe319d90	-0.17345262
41	0xbe4c9f07	-0.19982539
42	0xbddbbdf0	-0.10729587
43	0xbd7f2af9	-0.06229684
44	0x3e14df98	0.14538419
45	0x3e169ec9	0.14709009
46	0x3e178171	0.14795472
47	0xbe1137bd	-0.14181419
48	0x3dbe9bae	0.09307037
49	0x3c67e1ad	0.014152926
50	0x3e09c997	0.13455807
51	0x3d9d9441	0.07694293
52	0xbe08e646	-0.13369092
53	0xbdfc1696	-0.123089954
54	0x3c25c44e	0.0101176035
55	0xbdcecf1d	-0.100980975
56	0xbdd07a64	-0.10179594
57	0xbd97963e	-0.07401703
58	0x3e197b2e	0.14988396
59	0x3e21c1b8	0.15796554
60	0xbe712374	-0.2354868
61	0xbd19e9c1	-0.03757644
62	0xbe2795c2	-0.16365722
63	0x3e2d8085	0.16943558
